…
    MAX_SIZE: 4000
    MIN_SIZES:
    - 400
    - 500
    - 600
    - 700
    - 800
    - 900
    - 1000
    - 1100
    - 1200
  DETECTIONS_PER_IMAGE: 100
  EVAL_PERIOD: 0
  EXPECTED_RESULTS: []
  KEYPOINT_OKS_SIGMAS: []
  PRECISE_BN:
    ENABLED: false
    NUM_ITER: 200
VERSION: 2
VIS_PERIOD: 0
VIS_THRESH: 0.3

[32m[03/22 15:01:27 detectron2]: [0mFull config saved to ./output/fsod/finetune_dir/vovnet_25shot/config.yaml
[32m[03/22 15:01:27 d2.utils.env]: [0mUsing a generated random seed 31018204
[32m[03/22 15:01:38 d2.engine.defaults]: [0mModel:
CenterNet2Detector(
  (backbone): FPN(
    (fpn_lateral3): Conv2d(256, 128, kernel_size=(1, 1), stride=(1, 1))
    (fpn_output3): Conv2d(128, 128, kernel_size=(3, 3), stride=(1, 1), padding=(1, 1))
    (fpn_lateral4): Conv2d(384, 128, kernel_size=(1, 1), stride=(1, 1))
    (fpn_output4): Conv2d(128, 128, kernel_size=(3, 3), stride=(1, 1), padding=(1, 1))
    (fpn_lateral5): Conv2d(512, 128, kernel_size=(1, 1), stride=(1, 1))
    (fpn_output5): Conv2d(128, 128, kernel_size=(3, 3), stride=(1, 1), padding=(1, 1))
    (bottom_up): VoVNet(
      (stem): Sequential(
        (stem_1/conv): Conv2d(3, 64, kernel_size=(3, 3), stride=(2, 2), padding=(1, 1), bias=False)
        (stem_1/norm): FrozenBatchNorm2d(num_features=64, eps=1e-05)
        (stem_1/relu): ReLU(inplace=True)
        (stem_2/conv): Conv2d(64, 64, kernel_size=(3, 3), stride=(1, 1), padding=(1, 1), bias=False)
        (stem_2/norm): FrozenBatchNorm2d(num_features=64, eps=1e-05)
        (stem_2/relu): ReLU(inplace=True)
        (stem_3/conv): Conv2d(64, 128, kernel_size=(3, 3), stride=(2, 2), padding=(1, 1), bias=False)
        (stem_3/norm): FrozenBatchNorm2d(num_features=128, eps=1e-05)
        (stem_3/relu): ReLU(inplace=True)
      )
      (stage2): _OSA_stage(
        (OSA2_1): _OSA_module(
          (layers): ModuleList(
            (0): Sequential(
              (OSA2_1_0/conv): Conv2d(128, 64, kernel_size=(3, 3), stride=(1, 1), padding=(1, 1), bias=False)
              (OSA2_1_0/norm): FrozenBatchNorm2d(num_features=64, eps=1e-05)
              (OSA2_1_0/relu): ReLU(inplace=True)
            )
            (1): Sequential(
              (OSA2_1_1/conv): Conv2d(64, 64, kernel_size=(3, 3), stride=(1, 1), padding=(1, 1), bias=False)
              (OSA2_1_1/norm): FrozenBatchNorm2d(num_features=64, eps=1e-05)
              (OSA2_1_1/relu): ReLU(inplace=True)
            )
            (2): Sequential(
              (OSA2_1_2/conv): Conv2d(64, 64, kernel_size=(3, 3), stride=(1, 1), padding=(1, 1), bias=False)
              (OSA2_1_2/norm): FrozenBatchNorm2d(num_features=64, eps=1e-05)
              (OSA2_1_2/relu): ReLU(inplace=True)
            )
          )
          (concat): Sequential(
            (OSA2_1_concat/conv): Conv2d(320, 112, kernel_size=(1, 1), stride=(1, 1), bias=False)
            (OSA2_1_concat/norm): FrozenBatchNorm2d(num_features=112, eps=1e-05)
            (OSA2_1_concat/relu): ReLU(inplace=True)
          )
          (ese): eSEModule(
            (avg_pool): AdaptiveAvgPool2d(output_size=1)
            (fc): Conv2d(112, 112, kernel_size=(1, 1), stride=(1, 1))
            (hsigmoid): Hsigmoid()
          )
        )
      )
      (stage3): _OSA_stage(
        (Pooling): MaxPool2d(kernel_size=3, stride=2, padding=0, dilation=1, ceil_mode=True)
        (OSA3_1): _OSA_module(
          (layers): ModuleList(
            (0): Sequential(
              (OSA3_1_0/conv): Conv2d(112, 80, kernel_size=(3, 3), stride=(1, 1), padding=(1, 1), bias=False)
              (OSA3_1_0/norm): FrozenBatchNorm2d(num_features=80, eps=1e-05)
              (OSA3_1_0/relu): ReLU(inplace=True)
            )
            (1): Sequential(
              (OSA3_1_1/conv): Conv2d(80, 80, kernel_size=(3, 3), stride=(1, 1), padding=(1, 1), bias=False)
              (OSA3_1_1/norm): FrozenBatchNorm2d(num_features=80, eps=1e-05)
              (OSA3_1_1/relu): ReLU(inplace=True)
            )
            (2): Sequential(
              (OSA3_1_2/conv): Conv2d(80, 80, kernel_size=(3, 3), stride=(1, 1), padding=(1, 1), bias=False)
              (OSA3_1_2/norm): FrozenBatchNorm2d(num_features=80, eps=1e-05)
              (OSA3_1_2/relu): ReLU(inplace=True)
            )
          )
          (concat): Sequential(
            (OSA3_1_concat/conv): Conv2d(352, 256, kernel_size=(1, 1), stride=(1, 1), bias=False)
            (OSA3_1_concat/norm): FrozenBatchNorm2d(num_features=256, eps=1e-05)
            (OSA3_1_concat/relu): ReLU(inplace=True)
          )
          (ese): eSEModule(
            (avg_pool): AdaptiveAvgPool2d(output_size=1)
            (fc): Conv2d(256, 256, kernel_size=(1, 1), stride=(1, 1))
            (hsigmoid): Hsigmoid()
          )
        )
      )
      (stage4): _OSA_stage(
        (Pooling): MaxPool2d(kernel_size=3, stride=2, padding=0, dilation=1, ceil_mode=True)
        (OSA4_1): _OSA_module(
          (layers): ModuleList(
            (0): Sequential(
              (OSA4_1_0/conv): Conv2d(256, 96, kernel_size=(3, 3), stride=(1, 1), padding=(1, 1), bias=False)
              (OSA4_1_0/norm): FrozenBatchNorm2d(num_features=96, eps=1e-05)
              (OSA4_1_0/relu): ReLU(inplace=True)
            )
            (1): Sequential(
              (OSA4_1_1/conv): Conv2d(96, 96, kernel_size=(3, 3), stride=(1, 1), padding=(1, 1), bias=False)
              (OSA4_1_1/norm): FrozenBatchNorm2d(num_features=96, eps=1e-05)
              (OSA4_1_1/relu): ReLU(inplace=True)
            )
            (2): Sequential(
              (OSA4_1_2/conv): Conv2d(96, 96, kernel_size=(3, 3), stride=(1, 1), padding=(1, 1), bias=False)
              (OSA4_1_2/norm): FrozenBatchNorm2d(num_features=96, eps=1e-05)
              (OSA4_1_2/relu): ReLU(inplace=True)
            )
          )
          (concat): Sequential(
            (OSA4_1_concat/conv): Conv2d(544, 384, kernel_size=(1, 1), stride=(1, 1), bias=False)
            (OSA4_1_concat/norm): FrozenBatchNorm2d(num_features=384, eps=1e-05)
            (OSA4_1_concat/relu): ReLU(inplace=True)
          )
          (ese): eSEModule(
            (avg_pool): AdaptiveAvgPool2d(output_size=1)
            (fc): Conv2d(384, 384, kernel_size=(1, 1), stride=(1, 1))
            (hsigmoid): Hsigmoid()
          )
        )
      )
      (stage5): _OSA_stage(
        (Pooling): MaxPool2d(kernel_size=3, stride=2, padding=0, dilation=1, ceil_mode=True)
        (OSA5_1): _OSA_module(
          (layers): ModuleList(
            (0): Sequential(
              (OSA5_1_0/conv): Conv2d(384, 112, kernel_size=(3, 3), stride=(1, 1), padding=(1, 1), bias=False)
              (OSA5_1_0/norm): FrozenBatchNorm2d(num_features=112, eps=1e-05)
              (OSA5_1_0/relu): ReLU(inplace=True)
            )
            (1): Sequential(
              (OSA5_1_1/conv): Conv2d(112, 112, kernel_size=(3, 3), stride=(1, 1), padding=(1, 1), bias=False)
              (OSA5_1_1/norm): FrozenBatchNorm2d(num_features=112, eps=1e-05)
              (OSA5_1_1/relu): ReLU(inplace=True)
            )
            (2): Sequential(
              (OSA5_1_2/conv): Conv2d(112, 112, kernel_size=(3, 3), stride=(1, 1), padding=(1, 1), bias=False)
              (OSA5_1_2/norm): FrozenBatchNorm2d(num_features=112, eps=1e-05)
              (OSA5_1_2/relu): ReLU(inplace=True)
            )
          )
          (concat): Sequential(
            (OSA5_1_concat/conv): Conv2d(720, 512, kernel_size=(1, 1), stride=(1, 1), bias=False)
            (OSA5_1_concat/norm): FrozenBatchNorm2d(num_features=512, eps=1e-05)
            (OSA5_1_concat/relu): ReLU(inplace=True)
          )
          (ese): eSEModule(
            (avg_pool): AdaptiveAvgPool2d(output_size=1)
            (fc): Conv2d(512, 512, kernel_size=(1, 1), stride=(1, 1))
            (hsigmoid): Hsigmoid()
          )
        )
      )
    )
  )
  (proposal_generator): CenterNet(
    (iou_loss): IOULoss()
    (centernet_head): CenterNetHead(
      (cls_tower): Sequential()
      (bbox_tower): Sequential(
        (0): Conv2d(128, 128, kernel_size=(3, 3), stride=(1, 1), padding=(1, 1))
        (1): GroupNorm(32, 128, eps=1e-05, affine=True)
        (2): ReLU()
      )
      (share_tower): Sequential()
      (bbox_pred): Conv2d(128, 4, kernel_size=(3, 3), stride=(1, 1), padding=(1, 1))
      (scales): ModuleList(
        (0): Scale()
        (1): Scale()
        (2): Scale()
      )
      (agn_hm): Conv2d(128, 1, kernel_size=(3, 3), stride=(1, 1), padding=(1, 1))
    )
  )
  (roi_heads): CustomCascadeROIHeads(
    (box_pooler): ROIPooler(
      (level_poolers): ModuleList(
        (0): ROIAlign(output_size=(8, 8), spatial_scale=0.125, sampling_ratio=0, aligned=True)
        (1): ROIAlign(output_size=(8, 8), spatial_scale=0.0625, sampling_ratio=0, aligned=True)
        (2): ROIAlign(output_size=(8, 8), spatial_scale=0.03125, sampling_ratio=0, aligned=True)
      )
    )
    (box_pooler2): ROIPooler(
      (level_poolers): ModuleList(
        (0): ROIAlign(output_size=(4, 4), spatial_scale=0.125, sampling_ratio=0, aligned=True)
        (1): ROIAlign(output_size=(4, 4), spatial_scale=0.0625, sampling_ratio=0, aligned=True)
        (2): ROIAlign(output_size=(4, 4), spatial_scale=0.03125, sampling_ratio=0, aligned=True)
      )
    )
    (box_head): ModuleList(
      (0): FastRCNNConvFCHead(
        (flatten): Flatten(start_dim=1, end_dim=-1)
        (fc1): Linear(in_features=8192, out_features=128, bias=True)
        (fc_relu1): ReLU()
      )
    )
    (box_predictor): ModuleList(
      (0): CustomFastRCNNOutputLayers(
        (cls_score): Linear(in_features=128, out_features=2, bias=True)
        (bbox_pred): Linear(in_features=128, out_features=4, bias=True)
      )
    )
    (fc2): Linear(in_features=2048, out_features=128, bias=True)
    (fc3): Linear(in_features=256, out_features=128, bias=True)
    (conv1): Conv2d(128, 64, kernel_size=(1, 1), stride=(1, 1))
    (conv2): Conv2d(128, 64, kernel_size=(1, 1), stride=(1, 1))
    (conv3): Conv2d(256, 128, kernel_size=(1, 1), stride=(1, 1))
  )
  (agp1): AdaptiveAvgPool2d(output_size=(32, 32))
  (agp2): AdaptiveAvgPool2d(output_size=(16, 16))
  (agp3): AdaptiveAvgPool2d(output_size=(8, 8))
  (vip_p3): WeightedPermuteMLP(
    (mlp_h): Linear(in_features=128, out_features=128, bias=False)
    (mlp_w): Linear(in_features=128, out_features=128, bias=False)
    (reweighting): MLP(
      (fc1): Linear(in_features=128, out_features=64, bias=True)
      (act): GELU()
      (fc2): Linear(in_features=64, out_features=256, bias=True)
      (drop): Dropout(p=0.1, inplace=False)
    )
    (proj): Linear(in_features=128, out_features=128, bias=True)
    (proj_drop): Dropout(p=0.0, inplace=False)
  )
  (vip_p4): WeightedPermuteMLP(
    (mlp_h): Linear(in_features=128, out_features=128, bias=False)
    (mlp_w): Linear(in_features=128, out_features=128, bias=False)
    (reweighting): MLP(
      (fc1): Linear(in_features=128, out_features=64, bias=True)
      (act): GELU()
      (fc2): Linear(in_features=64, out_features=256, bias=True)
      (drop): Dropout(p=0.1, inplace=False)
    )
    (proj): Linear(in_features=128, out_features=128, bias=True)
    (proj_drop): Dropout(p=0.0, inplace=False)
  )
  (vip_p5): WeightedPermuteMLP(
    (mlp_h): Linear(in_features=128, out_features=128, bias=False)
    (mlp_w): Linear(in_features=128, out_features=128, bias=False)
    (reweighting): MLP(
      (fc1): Linear(in_features=128, out_features=64, bias=True)
      (act): GELU()
      (fc2): Linear(in_features=64, out_features=256, bias=True)
      (drop): Dropout(p=0.1, inplace=False)
    )
    (proj): Linear(in_features=128, out_features=128, bias=True)
    (proj_drop): Dropout(p=0.0, inplace=False)
  )
  (support_pool_1x1): AdaptiveAvgPool2d(output_size=(1, 1))
  (support_pool_1x3): AdaptiveAvgPool2d(output_size=(1, 3))
  (support_pool_3x1): AdaptiveAvgPool2d(output_size=(3, 1))
  (conv1): Conv2d(128, 64, kernel_size=(1, 1), stride=(1, 1))
  (conv2): Conv2d(128, 64, kernel_size=(1, 1), stride=(1, 1))
  (conv3): Conv2d(256, 128, kernel_size=(1, 1), stride=(1, 1))
)
[32m[03/22 15:01:38 fvcore.common.checkpoint]: [0m[Checkpointer] Loading from ./output/fsod/finetune_dir/vovnet_25shot/model_final.pth ...
[32m[03/22 15:01:38 d2.data.datasets.coco]: [0mLoaded 1060 images in COCO format from datasets/coco/annotations/instances_val2017.json
[32m[03/22 15:01:38 d2.data.build]: [0mDistribution of instances among all 1 categories:
…
